…
Training data imbalance levels after sampling
Negative Samples: 5311620
Positive Samples: 5317
Postive Class Ratio: 0.10000118489273052
Test data imbalance levels
Negative Samples: 654045
Positive Samples: 1329
Postive Class Ratio: 0.20278497468620968
Positive lenth 5317 and negative lenth 5311620
Total is 5316937
Theoretical threshold is 0.0010000118489273053
Minority ratio is 0.0010000118489273053
Model Summary:
_________________________________________________________________
Layer (type)                 Output Shape              Param #   
=================================================================
dense (Dense)                (None, 32)                2496      
_________________________________________________________________
batch_normalization (BatchNo (None, 32)                128       
_________________________________________________________________
activation (Activation)      (None, 32)                0         
_________________________________________________________________
dropout (Dropout)            (None, 32)                0         
_________________________________________________________________
dense_1 (Dense)              (None, 32)                1056      
_________________________________________________________________
batch_normalization_1 (Batch (None, 32)                128       
_________________________________________________________________
activation_1 (Activation)    (None, 32)                0         
_________________________________________________________________
dropout_1 (Dropout)          (None, 32)                0         
_________________________________________________________________
dense_2 (Dense)              (None, 1)                 33        
=================================================================
Total params: 3,841
Trainable params: 3,713
Non-trainable params: 128
_________________________________________________________________

MODEL COMPILED 0 min, 7 sec
BEGINNING TRAINING 0 min, 7 sec
TRAINING COMPLETE 89 min, 3 sec
RESULTS SAVED 89 min, 22 sec
ENDING RUN 0 89 min, 22 sec
BEGINNING RUN 1:  89 min, 22 sec
Data imbalance levels before sampling
…
