…
Data imbalance levels before sampling
Negative Samples: 2616175
Positive Samples: 5317
Postive Class Ratio: 0.202823430321359
Training imbalance levels after sampling
Negative Samples: 518
Positive Samples: 4785
Postive Class Ratio: 90.23194418253819
Validation imbalance levels after sampling
Negative Samples: 261618
Positive Samples: 532
Postive Class Ratio: 0.20293724966622162
Model Summary:
_________________________________________________________________
Layer (type)                 Output Shape              Param #   
=================================================================
dense (Dense)                (None, 32)                2496      
_________________________________________________________________
batch_normalization (BatchNo (None, 32)                128       
_________________________________________________________________
activation (Activation)      (None, 32)                0         
_________________________________________________________________
dropout (Dropout)            (None, 32)                0         
_________________________________________________________________
dense_1 (Dense)              (None, 32)                1056      
_________________________________________________________________
batch_normalization_1 (Batch (None, 32)                128       
_________________________________________________________________
activation_1 (Activation)    (None, 32)                0         
_________________________________________________________________
dropout_1 (Dropout)          (None, 32)                0         
_________________________________________________________________
dense_2 (Dense)              (None, 1)                 33        
=================================================================
Total params: 3,841
Trainable params: 3,713
Non-trainable params: 128
_________________________________________________________________

MODEL COMPILED 0 min, 6 sec
BEGINNING TRAINING 0 min, 6 sec
Epoch 0: Training Results
TN:  81 	FP:  437
FN:  0 	TP:  4785
AUC:  0.7451916986399745
Epoch 0: Validation Results
TN:  44756 	FP:  216862
…
