…
Training data imbalance levels after sampling
Negative Samples: 100984
Positive Samples: 5317
Postive Class Ratio: 5.00183441359912
Test data imbalance levels
Negative Samples: 654045
Positive Samples: 1329
Postive Class Ratio: 0.20278497468620968
Positive lenth 5317 and negative lenth 100984
Total is 106301
Theoretical threshold is 0.0500183441359912
Minority ratio is 0.0500183441359912
Model Summary:
_________________________________________________________________
Layer (type)                 Output Shape              Param #   
=================================================================
dense (Dense)                (None, 32)                2496      
_________________________________________________________________
batch_normalization (BatchNo (None, 32)                128       
_________________________________________________________________
activation (Activation)      (None, 32)                0         
_________________________________________________________________
dropout (Dropout)            (None, 32)                0         
_________________________________________________________________
dense_1 (Dense)              (None, 32)                1056      
_________________________________________________________________
batch_normalization_1 (Batch (None, 32)                128       
_________________________________________________________________
activation_1 (Activation)    (None, 32)                0         
_________________________________________________________________
dropout_1 (Dropout)          (None, 32)                0         
_________________________________________________________________
dense_2 (Dense)              (None, 1)                 33        
=================================================================
Total params: 3,841
Trainable params: 3,713
Non-trainable params: 128
_________________________________________________________________

MODEL COMPILED 0 min, 6 sec
BEGINNING TRAINING 0 min, 6 sec
TRAINING COMPLETE 1 min, 40 sec
RESULTS SAVED 2 min, 4 sec
ENDING RUN 0 2 min, 4 sec
BEGINNING RUN 1:  2 min, 4 sec
Data imbalance levels before sampling
…
