…
Training data imbalance levels after sampling
Negative Samples: 5311
Positive Samples: 5317
Postive Class Ratio: 50.02822732404968
Test data imbalance levels
Negative Samples: 654045
Positive Samples: 1329
Postive Class Ratio: 0.20278497468620968
Positive lenth 5317 and negative lenth 5311
Total is 10628
Theoretical threshold is 0.5002822732404968
Minority ratio is 0.5002822732404968
Model Summary:
_________________________________________________________________
Layer (type)                 Output Shape              Param #   
=================================================================
dense (Dense)                (None, 32)                2496      
_________________________________________________________________
batch_normalization (BatchNo (None, 32)                128       
_________________________________________________________________
activation (Activation)      (None, 32)                0         
_________________________________________________________________
dropout (Dropout)            (None, 32)                0         
_________________________________________________________________
dense_1 (Dense)              (None, 32)                1056      
_________________________________________________________________
batch_normalization_1 (Batch (None, 32)                128       
_________________________________________________________________
activation_1 (Activation)    (None, 32)                0         
_________________________________________________________________
dropout_1 (Dropout)          (None, 32)                0         
_________________________________________________________________
dense_2 (Dense)              (None, 1)                 33        
=================================================================
Total params: 3,841
Trainable params: 3,713
Non-trainable params: 128
_________________________________________________________________

MODEL COMPILED 0 min, 4 sec
BEGINNING TRAINING 0 min, 4 sec
TRAINING COMPLETE 0 min, 15 sec
RESULTS SAVED 0 min, 40 sec
ENDING RUN 0 0 min, 40 sec
BEGINNING RUN 1:  0 min, 40 sec
Data imbalance levels before sampling
…
