…
Negative Samples: 21261654
Positive Samples: 5317
Postive Class Ratio: 0.025001209622188318
Test data imbalance levels
Negative Samples: 654045
Positive Samples: 1329
Postive Class Ratio: 0.20278497468620968
Positive lenth 5317 and negative lenth 21261654
Total is 21266971
Theoretical threshold is 0.0002500120962218832
Minority ratio is 0.0002500120962218832
Model Summary:
_________________________________________________________________
Layer (type)                 Output Shape              Param #   
=================================================================
dense (Dense)                (None, 32)                2496      
_________________________________________________________________
batch_normalization (BatchNo (None, 32)                128       
_________________________________________________________________
activation (Activation)      (None, 32)                0         
_________________________________________________________________
dropout (Dropout)            (None, 32)                0         
_________________________________________________________________
dense_1 (Dense)              (None, 32)                1056      
_________________________________________________________________
batch_normalization_1 (Batch (None, 32)                128       
_________________________________________________________________
activation_1 (Activation)    (None, 32)                0         
_________________________________________________________________
dropout_1 (Dropout)          (None, 32)                0         
_________________________________________________________________
dense_2 (Dense)              (None, 1)                 33        
=================================================================
Total params: 3,841
Trainable params: 3,713
Non-trainable params: 128
_________________________________________________________________

MODEL COMPILED 4 min, 1 sec
BEGINNING TRAINING 4 min, 1 sec
TRAINING COMPLETE 607 min, 12 sec
RESULTS SAVED 607 min, 28 sec
ENDING RUN 0 607 min, 28 sec
BEGINNING RUN 1:  607 min, 28 sec
Data imbalance levels before sampling
…
