…
Data imbalance levels before sampling
Negative Samples: 2616175
Positive Samples: 5317
Postive Class Ratio: 0.202823430321359
Training imbalance levels after sampling
Negative Samples: 2354557
Positive Samples: 3394479
Postive Class Ratio: 59.044316299289136
Validation imbalance levels after sampling
Negative Samples: 261618
Positive Samples: 532
Postive Class Ratio: 0.20293724966622162
Model Summary:
_________________________________________________________________
Layer (type)                 Output Shape              Param #   
=================================================================
dense (Dense)                (None, 32)                2496      
_________________________________________________________________
batch_normalization (BatchNo (None, 32)                128       
_________________________________________________________________
activation (Activation)      (None, 32)                0         
_________________________________________________________________
dropout (Dropout)            (None, 32)                0         
_________________________________________________________________
dense_1 (Dense)              (None, 32)                1056      
_________________________________________________________________
batch_normalization_1 (Batch (None, 32)                128       
_________________________________________________________________
activation_1 (Activation)    (None, 32)                0         
_________________________________________________________________
dropout_1 (Dropout)          (None, 32)                0         
_________________________________________________________________
dense_2 (Dense)              (None, 32)                1056      
_________________________________________________________________
batch_normalization_2 (Batch (None, 32)                128       
_________________________________________________________________
activation_2 (Activation)    (None, 32)                0         
_________________________________________________________________
dropout_2 (Dropout)          (None, 32)                0         
_________________________________________________________________
dense_3 (Dense)              (None, 32)                1056      
_________________________________________________________________
batch_normalization_3 (Batch (None, 32)                128       
_________________________________________________________________
activation_3 (Activation)    (None, 32)                0         
_________________________________________________________________
dropout_3 (Dropout)          (None, 32)                0         
_________________________________________________________________
dense_4 (Dense)              (None, 1)                 33        
=================================================================
Total params: 6,209
Trainable params: 5,953
Non-trainable params: 256
_________________________________________________________________

MODEL COMPILED: 0 min, 22 sec
BEGINNING TRAINING: 0 min, 22 sec
TRAINING COMPLETE: 275 min, 43 sec
PLOTTING TRAIN VS VALIDATION PERFORMANCE
CALCULATING THRESHOLDS
RESULTS SAVED: 290 min, 4 sec
…
